outputs/model.pth (torch, 7421 bytes, 8 tensors)

token_embedding_table.weight f4 [37, 1]
-0.11452071 0.34481004 1.2607388 0.46045664 0.053310834 -0.26478684 -0.5526024 -0.30740547
-0.32517534 -0.94748455 1.3214221 0.07066391 1.9525602 0.197916 -0.50365996 -0.63988626
-0.08169715 0.81111616 0.30150217 -0.30842605 0.2513908 -1.1164536 2.064852 0.2852452
0.8216154 -1.2513977 0.79594237 -1.4547276 -0.7889052 -1.4030485 -0.7856131 -0.11288071
1.6744378 0.68695676 0.16177744 -1.7804745 1.0778888
00000000: d689 eabd f18a b03e e45f a13f f9c0 eb3e
00000010: 765c 5a3d 2492 87be 5a77 0dbf 4064 9dbe
00000020: 627d a6be 598e 72bf 5c24 a93f 3db8 903d
00000030: 7eed f93f 7eaa 4a3e dcef 00bf 96cf 23bf
00000040: d650 a7bd 4fa5 4f3f 7e5e 9a3e 05ea 9dbe
00000050: 4cb6 803e f4e7 8ebf 8926 0440 a90b 923e
00000060: 6355 523f cd2d a0bf e1c2 4b3f 8434 babf
00000070: b1f5 49bf 1897 b3bf f11d 49bf 002e e7bd
00000080: fa53 d63f 66dc 2f3f fca8 253e 97e6 e3bf
00000090: 43f8 893f

position_embedding_table.weight f4 [8, 1]
0.09142716 2.3855577 0.09241941 0.7961022 -1.8310169 0.6350571 -2.841979 -0.099192925
00000000: 2a3e bb3d faac 1840 6346 bd3d 5bcd 4b3f
00000010: c35e eabf 1a93 223f fce2 35c0 a925 cbbd

blocks.0.sa.heads.0.tril f4 [8, 8]
1.0 0.0 0.0 0.0 0.0 0.0 0.0 0.0
1.0 1.0 0.0 0.0 0.0 0.0 0.0 0.0
1.0 1.0 1.0 0.0 0.0 0.0 0.0 0.0
1.0 1.0 1.0 1.0 0.0 0.0 0.0 0.0
1.0 1.0 1.0 1.0 1.0 0.0 0.0 0.0
1.0 1.0 1.0 1.0 1.0 1.0 0.0 0.0
1.0 1.0 1.0 1.0 1.0 1.0 1.0 0.0
1.0 1.0 1.0 1.0 1.0 1.0 1.0 1.0
00000000: 0000 803f 0000 0000 0000 0000 0000 0000
00000010: 0000 0000 0000 0000 0000 0000 0000 0000
00000020: 0000 803f 0000 803f 0000 0000 0000 0000
00000030: 0000 0000 0000 0000 0000 0000 0000 0000
00000040: 0000 803f 0000 803f 0000 803f 0000 0000
00000050: 0000 0000 0000 0000 0000 0000 0000 0000
00000060: 0000 803f 0000 803f 0000 803f 0000 803f
00000070: 0000 0000 0000 0000 0000 0000 0000 0000
00000080: 0000 803f 0000 803f 0000 803f 0000 803f
00000090: 0000 803f 0000 0000 0000 0000 0000 0000
000000a0: 0000 803f 0000 803f 0000 803f 0000 803f
000000b0: 0000 803f 0000 803f 0000 0000 0000 0000
000000c0: 0000 803f 0000 803f 0000 803f 0000 803f
000000d0: 0000 803f 0000 803f 0000 803f 0000 0000
000000e0: 0000 803f 0000 803f 0000 803f 0000 803f
000000f0: 0000 803f 0000 803f 0000 803f 0000 803f

blocks.0.ffwd.net.0.weight f4 [4, 1]
0.6369598 0.91761255 -0.7489728 0.42050493
00000000: cc0f 233f a8e8 6a3f aebc 3fbf 6c4c d73e

blocks.0.ffwd.net.0.bias f4 [4]
-0.8331152 0.22514236 0.7513256 -0.10707617
00000000: 0a47 55bf b88b 663e e056 403f c04a dbbd

blocks.0.ffwd.net.2.weight f4 [1, 4]
0.108923376 0.3305021 -0.11431199 0.4289748
00000000: 3813 df3d 9237 a93e 681c eabd 96a2 db3e

lm_head.weight f4 [37, 1]
0.09347901 0.017669428 0.5207066 -0.49088365 0.81516224 0.068486206 -0.47323436 0.6197952
-0.045086317 0.23846345 -0.7801971 0.13788085 0.68959844 0.9305033 0.17865117 -1.0085948
-0.80214757 -0.8771772 -0.4708137 -0.9167141 0.4797205 1.0141144 0.42697966 -0.37562412
0.38057438 -0.2787885 -0.039863866 0.7732141 0.9935871 1.0366222 0.9402605 0.051704664
-0.52606094 -0.61069727 0.30865806 -0.11581903 0.84367746
00000000: ec71 bf3d 7abf 903c 074d 053f 1a55 fbbe
00000010: 79ae 503f 7f42 8c3d c64b f2be e6aa 1e3f
00000020: 6eac 38bd c32f 743e ffba 47bf a330 0d3e
00000030: 8689 303f 7735 6e3f 55f0 363e a219 81bf
00000040: 8b59 4dbf af8e 60bf 7e0e f1be c6ad 6abf
00000050: ed9d f53e 80ce 813f 149d da3e ce51 c0be
00000060: a5da c23e 5ebd 8ebe 4b48 23bd 5cf1 453f
00000070: b95b 7e3f 09b0 843f eab4 703f 45c8 533d
00000080: eeab 06bf a856 1cbf 6e08 9e3e 8732 edbd
00000090: 3ffb 573f

lm_head.bias f4 [37]
-0.90493876 -0.42752358 -0.37927744 0.051816754 0.39464563 0.660788 -0.39177933 -0.30307168
0.51349545 0.5398364 -0.8044284 0.22582568 -0.13119335 -0.84190327 0.64426285 -0.33424893
-0.0502001 0.69044983 -0.4675122 0.36487803 -0.42687532 -0.3645331 -0.30814856 -0.07597622
0.47503695 0.040529694 0.10493774 0.890135 -0.7478999 0.7116468 -0.077735886 -0.9011998
0.6614994 0.8179944 -0.82945466 0.37042475 -0.3883382
00000000: 11aa 67bf 5fe4 dabe a730 c2be ce3d 543d
00000010: fe0e ca3e 6729 293f 4d97 c8be 362c 9bbe
00000020: 7074 033f b832 0a3f 05ef 4dbf d93e 673e
00000030: 8d57 06be f986 57bf 69ee 243f ad22 abbe
00000040: 9f9e 4dbd 52c1 303f c25d efbe 4bd1 ba3e
00000050: 678f dabe 15a4 babe a6c5 9dbe 6c99 9bbd
00000060: 0b38 f33e 7702 263d 99e9 d63d e3df 633f
00000070: 5e76 3fbf 7c2e 363f fe33 9fbd 08b5 66bf
00000080: 0658 293f 1568 513f 2457 54bf 50a8 bd3e
00000090: 44d4 c6be
